…
   "cell_type": "markdown",
   "metadata": {
    "collapsed": false
   },
   "source": [
    "## 4.8unet模型结构的可视化"
   ]
  },
  {
   "cell_type": "code",
   "execution_count": 18,
   "metadata": {
    "collapsed": false
   },
   "outputs": [
    {
     "name": "stdout",
     "output_type": "stream",
     "text": [
      "-----------------------------------------------------------------------------\n",
      "  Layer (type)        Input Shape          Output Shape         Param #    \n",
      "=============================================================================\n",
      "    Conv2D-20      [[10, 3, 32, 32]]     [10, 64, 32, 32]        1,792     \n",
      " BatchNorm2D-19    [[10, 64, 32, 32]]    [10, 64, 32, 32]         256      \n",
      "     ReLU-19       [[10, 64, 32, 32]]    [10, 64, 32, 32]          0       \n",
      "    Conv2D-21      [[10, 64, 32, 32]]    [10, 64, 32, 32]       36,928     \n",
      " BatchNorm2D-20    [[10, 64, 32, 32]]    [10, 64, 32, 32]         256      \n",
      "     ReLU-20       [[10, 64, 32, 32]]    [10, 64, 32, 32]          0       \n",
      "  DoubleConv-10    [[10, 3, 32, 32]]     [10, 64, 32, 32]          0       \n",
      "   MaxPool2D-5     [[10, 64, 32, 32]]    [10, 64, 16, 16]          0       \n",
      "    Conv2D-22      [[10, 64, 16, 16]]   [10, 128, 16, 16]       73,856     \n",
      " BatchNorm2D-21   [[10, 128, 16, 16]]   [10, 128, 16, 16]         512      \n",
      "     ReLU-21      [[10, 128, 16, 16]]   [10, 128, 16, 16]          0       \n",
      "    Conv2D-23     [[10, 128, 16, 16]]   [10, 128, 16, 16]       147,584    \n",
      " BatchNorm2D-22   [[10, 128, 16, 16]]   [10, 128, 16, 16]         512      \n",
      "     ReLU-22      [[10, 128, 16, 16]]   [10, 128, 16, 16]          0       \n",
      "  DoubleConv-11    [[10, 64, 16, 16]]   [10, 128, 16, 16]          0       \n",
      "   MaxPool2D-6    [[10, 128, 16, 16]]    [10, 128, 8, 8]           0       \n",
      "    Conv2D-24      [[10, 128, 8, 8]]     [10, 256, 8, 8]        295,168    \n",
      " BatchNorm2D-23    [[10, 256, 8, 8]]     [10, 256, 8, 8]         1,024     \n",
      "     ReLU-23       [[10, 256, 8, 8]]     [10, 256, 8, 8]           0       \n",
      "    Conv2D-25      [[10, 256, 8, 8]]     [10, 256, 8, 8]        590,080    \n",
      " BatchNorm2D-24    [[10, 256, 8, 8]]     [10, 256, 8, 8]         1,024     \n",
      "     ReLU-24       [[10, 256, 8, 8]]     [10, 256, 8, 8]           0       \n",
      "  DoubleConv-12    [[10, 128, 8, 8]]     [10, 256, 8, 8]           0       \n",
      "   MaxPool2D-7     [[10, 256, 8, 8]]     [10, 256, 4, 4]           0       \n",
      "    Conv2D-26      [[10, 256, 4, 4]]     [10, 512, 4, 4]       1,180,160   \n",
      " BatchNorm2D-25    [[10, 512, 4, 4]]     [10, 512, 4, 4]         2,048     \n",
      "     ReLU-25       [[10, 512, 4, 4]]     [10, 512, 4, 4]           0       \n",
      "    Conv2D-27      [[10, 512, 4, 4]]     [10, 512, 4, 4]       2,359,808   \n",
      " BatchNorm2D-26    [[10, 512, 4, 4]]     [10, 512, 4, 4]         2,048     \n",
      "     ReLU-26       [[10, 512, 4, 4]]     [10, 512, 4, 4]           0       \n",
      "  DoubleConv-13    [[10, 256, 4, 4]]     [10, 512, 4, 4]           0       \n",
      "   MaxPool2D-8     [[10, 512, 4, 4]]     [10, 512, 2, 2]           0       \n",
      "    Conv2D-28      [[10, 512, 2, 2]]     [10, 1024, 2, 2]      4,719,616   \n",
      " BatchNorm2D-27    [[10, 1024, 2, 2]]    [10, 1024, 2, 2]        4,096     \n",
      "     ReLU-27       [[10, 1024, 2, 2]]    [10, 1024, 2, 2]          0       \n",
      "    Conv2D-29      [[10, 1024, 2, 2]]    [10, 1024, 2, 2]      9,438,208   \n",
      " BatchNorm2D-28    [[10, 1024, 2, 2]]    [10, 1024, 2, 2]        4,096     \n",
      "     ReLU-28       [[10, 1024, 2, 2]]    [10, 1024, 2, 2]          0       \n",
      "  DoubleConv-14    [[10, 512, 2, 2]]     [10, 1024, 2, 2]          0       \n",
      "Conv2DTranspose-5  [[10, 1024, 2, 2]]    [10, 512, 4, 4]       2,097,664   \n",
      "    Conv2D-30      [[10, 1024, 4, 4]]    [10, 512, 4, 4]       4,719,104   \n",
      " BatchNorm2D-29    [[10, 512, 4, 4]]     [10, 512, 4, 4]         2,048     \n",
      "     ReLU-29       [[10, 512, 4, 4]]     [10, 512, 4, 4]           0       \n",
      "    Conv2D-31      [[10, 512, 4, 4]]     [10, 512, 4, 4]       2,359,808   \n",
      " BatchNorm2D-30    [[10, 512, 4, 4]]     [10, 512, 4, 4]         2,048     \n",
      "     ReLU-30       [[10, 512, 4, 4]]     [10, 512, 4, 4]           0       \n",
      "  DoubleConv-15    [[10, 1024, 4, 4]]    [10, 512, 4, 4]           0       \n",
      "Conv2DTranspose-6  [[10, 512, 4, 4]]     [10, 256, 8, 8]        524,544    \n",
      "    Conv2D-32      [[10, 512, 8, 8]]     [10, 256, 8, 8]       1,179,904   \n",
      " BatchNorm2D-31    [[10, 256, 8, 8]]     [10, 256, 8, 8]         1,024     \n",
      "     ReLU-31       [[10, 256, 8, 8]]     [10, 256, 8, 8]           0       \n",
      "    Conv2D-33      [[10, 256, 8, 8]]     [10, 256, 8, 8]        590,080    \n",
      " BatchNorm2D-32    [[10, 256, 8, 8]]     [10, 256, 8, 8]         1,024     \n",
      "     ReLU-32       [[10, 256, 8, 8]]     [10, 256, 8, 8]           0       \n",
      "  DoubleConv-16    [[10, 512, 8, 8]]     [10, 256, 8, 8]           0       \n",
      "Conv2DTranspose-7  [[10, 256, 8, 8]]    [10, 128, 16, 16]       131,200    \n",
      "    Conv2D-34     [[10, 256, 16, 16]]   [10, 128, 16, 16]       295,040    \n",
      " BatchNorm2D-33   [[10, 128, 16, 16]]   [10, 128, 16, 16]         512      \n",
      "     ReLU-33      [[10, 128, 16, 16]]   [10, 128, 16, 16]          0       \n",
      "    Conv2D-35     [[10, 128, 16, 16]]   [10, 128, 16, 16]       147,584    \n",
      " BatchNorm2D-34   [[10, 128, 16, 16]]   [10, 128, 16, 16]         512      \n",
      "     ReLU-34      [[10, 128, 16, 16]]   [10, 128, 16, 16]          0       \n",
      "  DoubleConv-17   [[10, 256, 16, 16]]   [10, 128, 16, 16]          0       \n",
      "Conv2DTranspose-8 [[10, 128, 16, 16]]    [10, 64, 32, 32]       32,832     \n",
      "    Conv2D-36     [[10, 128, 32, 32]]    [10, 64, 32, 32]       73,792     \n",
      " BatchNorm2D-35    [[10, 64, 32, 32]]    [10, 64, 32, 32]         256      \n",
      "     ReLU-35       [[10, 64, 32, 32]]    [10, 64, 32, 32]          0       \n",
      "    Conv2D-37      [[10, 64, 32, 32]]    [10, 64, 32, 32]       36,928     \n",
      " BatchNorm2D-36    [[10, 64, 32, 32]]    [10, 64, 32, 32]         256      \n",
      "     ReLU-36       [[10, 64, 32, 32]]    [10, 64, 32, 32]          0       \n",
      "  DoubleConv-18   [[10, 128, 32, 32]]    [10, 64, 32, 32]          0       \n",
      "    Conv2D-38      [[10, 64, 32, 32]]    [10, 2, 32, 32]          130      \n",
      "=============================================================================\n",
      "Total params: 31,055,362\n",
      "Trainable params: 31,031,810\n",
      "Non-trainable params: 23,552\n",
      "-----------------------------------------------------------------------------\n",
      "Input size (MB): 0.12\n",
      "Forward/backward pass size (MB): 145.31\n",
      "Params size (MB): 118.47\n",
…
